NTU-ML/hw1/weight_and_bias.npy (npy, 2728 bytes, 1 tensors)

array f8 [325, 1]
000000 0d 70 63 07 25 67 36 40 ea 99 a4 3f 4b f3 ed 3f
       22.40290876557997 0.9359489672686412
000010 21 6c 91 09 1d 84 00 c0 d1 d0 f6 1e 03 fd 02 40
       -2.064508509397925 2.3735411089965983
000020 b8 bf 32 42 0c c7 02 c0 58 d7 50 da da 5f e4 bf
       -2.3471913501489006 -0.6367010368328279
000030 3f 29 90 4e da 04 06 40 d8 b1 7c ec 57 74 e4 bf
       2.7523695123428804 -0.6392020815742923
000040 07 c0 7f 23 25 ed 0f c0 bf 0a 62 b6 8a 26 0b 40
       -3.9907934926377524 3.393819260470394
000050 d0 be 41 c3 2d 92 c3 bf 24 ba f2 ad 5a 2f bb 3f
       -0.15289852174782093 0.10619131800442766
000060 9a d7 bb 43 45 19 c9 bf a8 6b e8 e5 dd 16 be bf
       -0.1960836964350932 -0.117536419515473
000070 43 18 99 0c a1 3f c4 3f c0 4c 03 58 64 24 ce bf
       0.1581918059839059 -0.23548559472565067
000080 6d 23 07 92 b1 ee df bf 83 b2 d0 d8 d2 c6 c5 3f
       -0.49894370327506615 0.17013011538201192
000090 e6 5e ad be 5a f7 f3 3f 6c f3 80 e3 b8 26 a1 3f
       1.247889275391509 0.033498552104424956
0000a0 07 b9 95 15 59 cb eb 3f 73 e4 ec 75 26 55 d6 bf
       0.8685727521495047 -0.34894715801380655
0000b0 de 35 4f 23 59 06 c2 bf f4 30 54 c6 9c bc b1 3f
       -0.140818731537748 0.06928424684537388
0000c0 d6 ae 87 9c 95 d9 ca bf 29 22 bc 8f cc f3 e1 bf
       -0.20976514952723474 -0.5610106284448807
0000d0 ab b8 44 01 3a bc c8 3f 98 f5 1e 47 8b ad f4 3f
       0.19324421941695866 1.2923691538011095
0000e0 63 41 c5 30 c7 fa d0 bf 08 e5 ec ca e9 00 e1 3f
       -0.2653062797808358 0.5313614810358169
0000f0 ef e9 de 24 1f 22 b4 3f c9 c6 07 1b b1 3f af 3f
       0.07864565515675513 0.061032805013281406
000100 34 d5 1a a2 b8 32 5e bf 21 a2 57 74 f8 0e d1 bf
       -0.0018431475695426915 -0.266538728347344
000110 4c b9 79 ae d1 97 d0 3f 62 f8 65 ff 9e e3 d0 3f
       0.2592663005697389 0.26389288846247017
000120 1d 97 45 09 cd 1a e3 bf 52 f1 43 e5 75 af cb bf
       -0.597021597012574 -0.2162921304187742
000130 db 00 88 df 32 08 57 bf 4c 58 44 53 5e bb d8 3f
       -0.001405763321713541 0.3864360631135966
000140 a1 2f fe eb be ea e1 bf 58 58 81 14 df 17 e6 bf
       -0.5599054917561156 -0.6904139900677917
000150 f8 81 95 d9 7e b0 d4 bf 1f 01 3f 8f 17 c3 cb 3f
       -0.3232724308818713 0.21689123625220305
000160 7a 0c ff 18 2e b3 eb bf ed 5d 93 44 a2 d2 eb bf
       -0.8656225670059847 -0.8694621409767344
000170 3c 73 72 c6 37 e8 bd 3f 57 22 35 c8 c7 1b e0 bf
       0.11682461352252188 -0.503391161947614
000180 f7 29 8f 86 a6 b3 d8 bf 8b 36 41 c5 b8 4c fa bf
       -0.3859649957709332 -1.6437308984053824
000190 e8 32 f5 c5 4a d9 eb bf 73 77 1b 34 4f a3 fa bf
       -0.8702749124873579 -1.6648704562607832
0001a0 5a 54 72 8e a7 55 de bf 99 a9 13 85 54 8d f7 bf
       -0.47397793684769385 -1.4720044325173147
0001b0 4b 1c ee 06 c2 92 eb bf c4 98 31 62 04 c0 d0 3f
       -0.8616647849420443 0.2617197951243606
0001c0 3e f2 00 03 2d e1 cf bf 2c 07 c6 83 b4 42 d0 3f
       -0.24905932089485988 0.2540713583804173
0001d0 56 20 84 04 9f 90 00 40 c1 b2 59 5a 56 a2 f2 3f
       2.0706158020803214 1.1646331338226192
0001e0 55 b7 b9 e6 f4 51 00 40 87 25 c2 a9 98 f7 d6 3f
       2.0400178933549946 0.35886208131758973
0001f0 49 08 4e 6b c3 37 fd 3f a5 c4 ba b6 32 0a 00 40
       1.8261141006082815 2.0049795413729776
000200 75 61 a5 5a bb df c7 3f 62 3a e4 ac aa 56 b8 bf
       0.18651525426936258 -0.09507242890342973
000210 72 85 5e 9c e7 d6 d1 bf 50 a9 cb b2 31 a8 a2 3f
       -0.2787417437594605 0.036439469409588754
000220 81 71 9d 9e e7 fe cc bf aa 5c 8c 13 37 7c ab bf
       -0.22652907605050746 -0.05368206132532667
000230 ed 17 42 e9 d0 f9 e8 bf 14 97 bd 20 e9 f2 e1 bf
       -0.7804951244186192 -0.560902179666956
000240 ca 4e 2c fe 94 dc 02 40 7f 13 97 2c 64 80 cf 3f
       2.3577060563346537 0.24610569169285765
000250 8a 0a 61 fa 35 f7 c9 3f ee 0f 0f d2 85 57 ed bf
       0.20285677648105988 -0.9169339277946145
000260 a1 48 0e 16 a0 40 f3 3f 19 7d 8a c4 4a d8 ba bf
       1.2032776700548669 -0.10486285494197424
000270 98 57 bd b7 7b 50 f3 bf a9 2b 8a 7a d5 e8 f1 3f
       -1.2071492364243337 1.119344214125457
000280 a1 36 a3 e4 d1 29 b5 3f 06 15 c5 ee 63 e1 e1 3f
       0.08266937095614903 0.5587634719346688
000290 8a fe be 03 ab 26 e2 bf c8 9c 1b 71 9a 07 d2 bf
       -0.5672202180066546 -0.281714067894836
0002a0 30 06 9f 06 27 03 0d 40 a5 8d 22 40 d8 3b 10 c0
       3.6265392796783757 -4.058442117794958
0002b0 37 c0 24 bc 45 6b c0 bf 68 0e ea c3 ab fb 1f 40
       -0.1282736939115254 7.995772420082723
0002c0 76 ae 5d 29 62 05 22 c0 ad 0e 37 b9 bf 18 e1 3f
       -9.010514538465241 0.5342711083871642
0002d0 ff 40 23 79 cc da 2e 40 fc 98 1f fb 7e 91 76 bf
       15.427341256669477 -0.00550984956678335
0002e0 ff af 88 3a 70 0e ce bf 01 87 f3 2c 9f 33 c3 bf
       -0.23481562479116744 -0.1500128716934839
0002f0 6b 41 da b0 4e 06 c0 3f 5b b3 f1 73 da 40 c1 bf
       0.12519248614672604 -0.13479166661582095
000300 f2 c8 9f 03 88 e2 b8 3f a9 7c b6 1c 2b 10 b6 3f
       0.09720659340362994 0.08618421030995428
000310 a4 b5 b7 2c 07 49 d0 bf ca 85 a4 cf f7 b8 d6 bf
       -0.2544572769828284 -0.3550395515213408
000320 e9 ec 66 99 e9 93 d5 3f 42 96 89 42 02 eb cc bf
       0.3371528623644751 -0.22592190026186826
000330 7a bc 55 e0 ce 27 e1 3f ed 9c 39 6e 6c 04 ea bf
       0.5361093884984165 -0.813039984973242
000340 bb 7f 2d fa be fb e6 bf 25 0b 52 c5 97 d2 f5 3f
       -0.7182307134898943 1.3639142711478567
000350 43 a9 13 32 82 2d eb bf ac 64 8e 78 ac 5a f3 bf
       -0.8493052461683778 -1.2096371373393522
000360 d6 7e 1c 2e de 6a f2 3f fd 61 4d 16 db c4 e4 bf
       1.1510907937262593 -0.6490302501288735
000370 95 ab 96 03 44 e3 ea 3f 38 54 4f e6 07 80 cd bf
       0.8402423925484636 -0.2304696917114215
000380 ab 48 2b 35 97 47 c2 bf 21 ee 7e 98 db 90 97 3f
       -0.14280977340837828 0.023013526136976496
000390 22 61 c8 a1 0c e9 d5 3f 58 83 71 88 b8 b5 e2 bf
       0.34234920310110983 -0.5846827187452659
0003a0 c8 33 38 1f e9 05 9e 3f 21 b7 47 b7 3f 84 eb 3f
       0.029319422274102697 0.8598936633768269
0003b0 5a 0c 78 52 65 79 c4 bf f6 79 e7 01 19 44 e7 bf
       -0.15995470549396168 -0.7270627057258128
0003c0 12 5a 15 4f 82 3a d5 3f 34 96 b5 a6 b5 f1 ca bf
       0.33169610712994413 -0.21050139083961172
0003d0 83 93 b1 f6 d1 a7 ad bf fa d1 1e 76 3d 9b dc 3f
       -0.05792099129101926 0.4469751027602623
0003e0 a2 04 be 46 df a9 d4 bf 72 60 4c 95 23 0c e4 bf
       -0.3228681746332517 -0.6264818111403783
0003f0 26 2b 0a ba fc f5 eb 3f ce 94 4c ac 17 be ba bf
       0.8737777360523509 -0.1044630809452258
000400 58 1d a3 e8 de ce de 3f e8 8c b7 87 87 95 99 3f
       0.4813763877723054 0.02498447194910805
000410 9a 8d ac dc 8a b5 8f 3f 00 0a fa ba 34 dd cc bf
       0.015482983455121158 -0.22550067071649949
000420 05 d0 43 20 1b 92 ca 3f f4 5d 34 d4 75 a5 b6 bf
       0.20758380008157942 -0.08846222334647519
000430 00 48 a1 34 34 11 b6 3f 60 45 b3 77 8c 65 a6 3f
       0.08620001110946873 0.043743505107736835
000440 17 af 68 ff 4c 0c c0 bf b6 8c d5 33 02 e9 c3 bf
       -0.1253753897775531 -0.1555483582588743
000450 39 64 82 e5 e6 9b b4 3f 9d 4c 95 43 57 5c c4 bf
       0.08050387480979361 -0.15906801986657096
000460 27 bd fb 1e d9 98 c3 3f 39 aa 34 54 44 d7 94 bf
       0.1531020547185815 -0.020352428092488693
000470 02 b9 fe 0b 57 8a c4 3f 37 41 2b ee f4 1a ad bf
       0.16047180257505295 -0.05684628875099167
000480 b9 d2 5d 15 9f 97 ca 3f 39 51 55 57 ad af b3 bf
       0.2077521185234639 -0.07689937002334525
000490 d3 ec 9e a7 47 bc c9 bf 24 92 26 d6 d6 98 cc 3f
       -0.20105834660157615 0.22341428238463934
0004a0 e1 c1 2d 2c 0c 9c ad 3f b4 c6 ad 7d 62 77 aa bf
       0.05783117331782584 -0.05169208320775223
0004b0 8c 04 76 9c d5 72 c3 bf 2e d7 76 fc 7a 51 b4 3f
       -0.1519419683427582 0.07936829246213215
0004c0 14 b4 b4 be e2 bb 8e 3f ac d1 aa a2 dd 7f cb bf
       0.01500680107582223 -0.21483965342271227
0004d0 dd be 8c 28 70 6d bb bf 60 2d 8e 24 d6 d9 c4 3f
       -0.10713864316926043 0.16289784226351411
0004e0 aa 66 4a 6d d9 f7 b5 bf ed 43 1f 03 f4 2d c6 bf
       -0.08581313055256126 -0.17327737953613057
0004f0 d5 5f 02 eb f9 c7 6a 3f 76 46 a4 25 22 5a d9 3f
       0.0032691842280421026 0.39612630535075455
000500 20 af d9 b0 16 30 c5 bf 18 9f c4 bd 8a ee dc bf
       -0.16553004870672172 -0.4520594456866873
000510 ad 87 ae 4c e1 81 c1 3f d8 40 6f ad 71 5d c0 3f
       0.13677612537599995 0.1278516861771155
000520 4f 5d 17 ea 10 82 d2 bf 23 d4 17 57 39 09 da 3f
       -0.2891886030242476 0.40681298737701094
000530 58 ef 2e 72 10 b0 d3 bf b8 7a 22 47 a8 fb c9 bf
       -0.30762110853878744 -0.20299247239468854
000540 6c d3 58 97 4b 62 dd 3f cd a1 db aa 81 c6 9c 3f
       0.459124467658788 0.028100992253628655
000550 b0 c4 ef af a6 1b e9 bf ed ef d5 0d 66 84 db 3f
       -0.7846253811132069 0.42995597220556087
000560 9d e5 b3 45 0b 5f b0 3f f8 e0 c1 73 87 10 a1 3f
       0.06395025684095974 0.03332923210195021
000570 35 5a 9d 98 e4 22 b1 bf f6 34 4d c6 1d f0 a6 bf
       -0.06693867422050277 -0.04480069204019259
000580 08 67 29 65 45 b8 98 3f a0 1f 65 b3 28 b0 ae bf
       0.02414043836538496 -0.059937736414723775
000590 e3 41 02 19 76 21 94 bf 57 ab 24 52 b1 64 a2 3f
       -0.01965889480249129 0.03592447402691928
0005a0 1c e7 c6 55 23 35 af 3f fe f0 64 9f 94 ea 83 bf
       0.06095228597719268 -0.009724770654991218
0005b0 7e 38 c7 c5 a6 ab b0 bf 97 0c 5a a7 16 06 96 3f
       -0.06511919334954716 0.0215076007502942
0005c0 38 37 be e2 94 05 89 3f 2f 9b c1 62 93 19 84 3f
       0.012217677278183112 0.00981440682535392
0005d0 00 08 52 b4 22 0b 90 3f 9e 99 01 94 55 7c 99 3f
       0.015667478805433177 0.024888360174736605
0005e0 7a 68 7d 70 ea 89 96 bf 91 7e 48 57 a6 ae b2 bf
       -0.02201048194488251 -0.07297744399010699
0005f0 59 67 c7 72 c9 ff c1 3f 83 98 b3 4e e0 56 ac 3f
       0.14061849693717468 0.05535031281196814
000600 0f 53 60 9c d8 65 c0 bf e1 fb 33 96 f6 c8 92 3f
       -0.12810809741554194 0.018344738881747594
000610 9c 93 18 8c 91 e0 b6 3f c2 2b 69 53 6d 87 b5 bf
       0.08936414404213483 -0.08409770285031384
000620 09 01 dc ac e2 da 9f 3f 3e 57 57 77 4c ef 9e 3f
       0.031108419228076865 0.030209727081305753
000630 ee b4 2f db 99 ae b7 bf 61 f3 55 88 46 a7 b0 3f
       -0.09250794984082564 0.06505242184171102
000640 ba 3c 16 0a 0e 71 67 3f 31 a7 c4 44 c8 1d b6 3f
       0.002861525936800638 0.08639194182310629
000650 87 eb a6 23 62 99 c2 bf 0d b3 1e 85 0b f4 b3 3f
       -0.1453058885652718 0.07794258117673909
000660 50 00 e5 99 23 15 b7 bf a9 61 d8 71 6b 61 94 bf
       -0.09016630656424351 -0.019902876685678503
000670 b3 c5 0c 5e fb 0b a8 bf b8 32 29 d2 87 be b6 3f
       -0.046966414671611466 0.08884476548082432
000680 98 fa 47 94 81 f0 c6 3f a8 0d e2 7d 09 bb 79 bf
       0.1792146657971514 -0.006281888081619703
000690 d1 ee 56 9f 67 8e d7 3f d7 2a a3 78 f9 43 e1 bf
       0.3680666976976968 -0.5395476680945092
0006a0 79 4f b2 28 f3 2e c1 3f 37 b7 19 6c 8d 4e c3 bf
       0.13424529540190713 -0.15083472994177224
0006b0 67 80 f0 ee a1 ec 89 3f 80 16 be b7 91 9f e1 bf
       0.012658372024873367 -0.5507286633225732
0006c0 11 32 c3 14 74 76 d7 3f fa f3 08 aa 67 1b c1 bf
       0.3666048243292446 -0.13364883234490305
0006d0 1a 68 3d 5b 8f 92 a2 bf 0d d5 d9 d6 b8 c5 dc bf
       -0.03627441395538274 -0.4495679948953047
0006e0 cf b4 89 3c 61 5a e1 3f de f1 99 3d 3d e8 c6 bf
       0.5422826940899997 -0.17896237857702507
0006f0 e1 29 37 38 ff 5a c7 3f 35 31 96 be 31 d0 9e bf
       0.18246450657745952 -0.030091073281753828
000700 1a 98 b5 bc ce d5 e0 3f f8 bf d4 d1 11 c8 cf bf
       0.5260995565156492 -0.24829313989312118
000710 8e 69 11 3a 9f 5e ba bf 98 d0 87 f2 a0 14 b9 3f
       -0.10300631683040803 0.09797101899295269
000720 8f 6f 8f 29 e9 e9 7c 3f c6 eb a2 b9 25 4f ab bf
       0.007059012213144102 -0.05333822146481952
000730 6b 86 33 9a 42 17 aa 3f b3 7f 4a 4e 1d 66 bd bf
       0.05095871097888679 -0.11483939324761998
000740 1c 83 8d 43 ec 6d bb 3f 37 2f 19 44 1d b8 ac 3f
       0.10714604043233716 0.05609218078879368
000750 6e a3 e4 96 72 df c8 bf c8 96 c6 ff 14 fd a0 bf
       -0.1943190800459677 -0.03318086263906889
000760 50 c8 46 b0 76 32 a0 3f 57 c3 ad 0c c2 44 c4 3f
       0.03163500692188903 0.15834832781868144
000770 e1 55 f5 ff b6 f9 c1 bf 33 85 31 8c f4 5f c5 bf
       -0.14043319223371412 -0.16699082227118253
000780 59 56 cb 85 ea 7b c9 3f 9a 19 e2 1e bf 1d 72 bf
       0.19909411938594948 -0.004422899785032542
000790 f4 20 9e e1 5a d1 d4 bf c4 f2 6e f5 79 76 d4 3f
       -0.3252780154512174 0.31973122566322965
0007a0 98 73 f4 09 e1 0b b9 bf db 41 dc a6 c8 72 c0 3f
       -0.09783751004256513 0.12850292346457945
0007b0 c2 a5 bd 68 31 10 bf bf cc 00 05 8c d1 1b b8 3f
       -0.12134083563946432 0.09417447727628597
0007c0 f6 69 80 b0 09 f1 bd 3f ee 52 dd 20 9f c6 a6 bf
       0.11695919570085053 -0.04448411251238392
0007d0 0f a8 a7 31 10 ba cf bf d1 4a 74 8f 47 6c c9 3f
       -0.24786570000225125 0.19861692909815656
0007e0 51 8e 3d e7 f7 77 b0 3f bd 60 90 e8 cc 72 73 3f
       0.06433057208556049 0.004748154090542464
0007f0 8e 60 ee 91 d0 d6 81 3f 75 79 d4 d7 78 8b 67 3f
       0.008710507825341798 0.002874122640277916
