NTU-ML/hw1/weight_and_bias.npy (npy, 1432 bytes, 1 tensors)

array f8 [163, 1]
0	0x40355fc039f9d780	21.37402689313558
1	0x3fd9438de05abfe4	0.39474818143480506
2	0xbfec0290c45c807b	-0.8753131709272702
3	0x3ff2497abd5ef4e3	1.1429393193532682
4	0xbffaa9a301ff853a	-1.666415221982176
5	0xbfa0386f891695e0	-0.0316805701107048
6	0x3ff0077f8f0b651b	1.0018306338955145
7	0xbfda466086fbb04f	-0.4105454748339569
8	0xbffaeb1458d44088	-1.6823924512755486
9	0x40005636ab59fb49	2.0420964609942627
10	0xbfd28dbf0ea799f1	-0.28990150862810454
11	0x3fc33a5241102ca4	0.15021732499039786
12	0x3fb69f1cd6a703e7	0.08836536636864843
13	0x3fb5ae759774193e	0.08469328830333198
14	0x3f8a09cd49a657b8	0.012714008150208275
15	0xbf9ac17c8d8344e9	-0.026128717553381007
16	0xbfc7ab7e2074429f	-0.18492104134249573
17	0x3fc39a69d04b98a7	0.15314982100170946
18	0x3fe06516b297b428	0.512339924634607
19	0x3fab630b0f158c41	0.05349001464016868
20	0xbf9c7ecdbc86e128	-0.027827467567221792
21	0x3fb037bb1647eb3f	0.06335038465469454
22	0xbfc4c2d7af2897ea	-0.1621961217180677
23	0x3fc36600cae9e739	0.1515503874577975
24	0xbf96b0241cd47953	-0.02215629983867846
25	0xbfc57dd09fae3b56	-0.167902067154922
26	0x3fb49b76ec055385	0.08049720060564709
27	0x3fd9eb116be2ae07	0.4049724153107665
28	0xbfd2bfff45dc833e	-0.29296857664489895
29	0x3fd950f4f17f39c5	0.3955662115448855
30	0xbfd03bab32f8c4ac	-0.2536418912669187
31	0x3fd21f1e780f3736	0.2831493542151863
32	0x3fd6375641444c48	0.34712749837598667
33	0xbfe047f54672acdd	-0.5087839485107924
34	0x3fb39a43e57aea04	0.07657265045683209
35	0x3fc556f9c1d7c736	0.1667167850969748
36	0x3fb36447ce199dba	0.07574890882243937
37	0x3fbae7f8acc38bf5	0.1051021024500612
38	0x3fb886f7d99db9fb	0.0958094507493356
39	0x3fce7c2be3ca9447	0.23816441176055234
40	0xbff00499267b135c	-1.0011226180224275
41	0xbfe002c35c54147a	-0.5003372958459658
42	0xbfe275cde6ea8dd2	-0.5768804082949208
43	0xbfb059d735260618	-0.06387085959979577
44	0xbfe24b503b758bac	-0.5716935311614768
45	0xbfe5c89c7474f8fe	-0.6807386660146049
46	0x3fd3bc49d8b7cf23	0.30836721576564424
47	0xbfbfafbdbba0bb34	-0.12377534704931464
48	0xbfceaf2cc220d17f	-0.2397209117786012
49	0xc0055811c9110b71	-2.6680026729895236
50	0xbff8e50d406c3ed1	-1.55592084088487
51	0xbff0687362d8f330	-1.0255006657818733
52	0xbfe40b7be4c3a84d	-0.6264018505146481
53	0xc00646205e06747c	-2.784241423198692
54	0x3fc5ed6069692499	0.17130665919311097
55	0xbfae294a00aee3ec	-0.05890876062716885
56	0xbfdf1745cc9df368	-0.4857954500401349
57	0x3fc724003ee74b76	0.18078616210422255
58	0x400890a8500b8a75	3.070633530952643
59	0x3ffbf3677651ed86	1.7469248411060518
60	0x3ff5960010db57bf	1.349121156546502
61	0x3fd84be304496813	0.3796317617285478
62	0x4005a45dd4bb34d9	2.7052570933943625
63	0x3ffe65e97f55b348	1.8998808835996943
64	0xbf62eff69cde24be	-0.002311689057880344
65	0x3fd186e3e1a33470	0.27385804209627107
66	0xbfc9db85879b84b0	-0.2020117675920452
67	0xbfd6e452a9336baa	-0.35768572352906836
68	0x3f9e9f2e03b52ab6	0.029904097534464845
69	0xbfe43636a90dadc4	-0.6316178609680994
70	0xbfd7c2c4be8088bb	-0.3712627277728974
71	0xbfd0bcc358391e5f	-0.26152118316210776
72	0x3ffd81b046cbd008	1.8441622510408724
73	0x3fcd2669199f3492	0.22773469687527786
74	0x3fce2b4648d34d81	0.2356956344216137
75	0xbfe9ade2a9f3ae38	-0.8024762458202934
76	0x3ff215f816fb63ab	1.1303635499700515
77	0xbfcb349c450bcc01	-0.21254304286375716
78	0xbff085fa6ec3fe55	-1.032709534338115
79	0x3ff0656513905a51	1.0247545971120824
80	0xbfb082834e606136	-0.06449146903503764
81	0x3fed4f9e21dabec6	0.9159689580173669
82	0xbfe334eed31e0f16	-0.6002115367304863
83	0xbfcb9dcd8bba56d4	-0.21575326273585083
84	0x400ca60a8e0b5f63	3.5810748192997592
85	0xc00f6c44cf4653eb	-3.9278656190240233
86	0xbfd68fb82dd03cb9	-0.35252193902938306
87	0x40205e677d2fbc8a	8.184383308484275
88	0xc0227fef2cd2570d	-9.249871636081958
89	0x3fd9da6b868e36dc	0.40395630016506145
90	0x402faac82e55df2e	15.833558509809873
91	0x3fb3c7f27475fbc0	0.07726970046313308
92	0xbf93b6cfc50de27b	-0.01925205841277709
93	0xbfb84c7417bf2bc6	-0.09491658763651775
94	0x3f9513b856105c55	0.020583038571285368
95	0xbfbdc58c5db70880	-0.11629559791529864
96	0x3fb9d5aa9b41d1a9	0.1009165410085361
97	0x3fa2a83e2f711f54	0.036439841548200264
98	0xbfb56b12d1c8a5e0	-0.08366506215738623
99	0xbfc49495c20ef8c7	-0.16078445411216633
100	0xbfbea4d7cad0cae5	-0.11970280362656245
101	0x3fd079a319671940	0.25742413979277856
102	0x3fd50b5f95f63827	0.328819176146569
103	0xbfea518448633f20	-0.8224507726499475
104	0xbfe33d997bdde81a	-0.6012694758676418
105	0x3ff208594f572bf2	1.1270382975806084
106	0xbff3ffb21e1bebdf	-1.2499257255683387
107	0xbf5b83d1829ff7c9	-0.001679377174240925
108	0x3fe63c344d9ae9a4	0.694849158833041
109	0xbfe0a8003683608b	-0.5205079140387324
110	0x3fe363536ffcaa3b	0.605874747013622
111	0xbfc15b2c2344c25b	-0.13559486124133255
112	0xbfb9453784b5eb1e	-0.09871241559987395
113	0xbf8e30fdc93c2eb4	-0.014741881087977894
114	0x3fb9275370ccf6fc	0.09825631622240033
115	0xbfcac354bc56a060	-0.2090860290165919
116	0x3fd09f25ddf577f4	0.2597136180464752
117	0x3fd11dcab788d87f	0.2674433510141014
118	0x3fd3d10efd942ac1	0.30963492167999723
119	0xbfd5692c8ed08b97	-0.33454431483021935
120	0x3fc1623d872e8fb3	0.13581055737188094
121	0xbfda4fe5802bd0e8	-0.41112649456705563
122	0xbfbe21cfa09ce878	-0.11770341559614106
123	0x3fd5b1925106693e	0.3389631072292508
124	0x3fb5f182d545b9f6	0.0857164164242262
125	0xbfd582c26d516ac9	-0.33610592532720013
126	0xbfc251cd1523f121	-0.1431213715767479
127	0xbfa67fed23616670	-0.043944750374703356
128	0x3fd28836dea60769	0.28956386321089284
129	0xbf9eb306b8730776	-0.029979805953878245
130	0x3fc6fca36e8d2e99	0.17958491228124698
131	0x3fa67e47e036de8a	0.04393219577781078
132	0x3fc60cecda7e3ff8	0.1722694460736418
133	0xbfcf135ef90a5718	-0.24277865562606205
134	0x3fbd78e339b1edfc	0.11512584837503675
135	0x3f9af99b3231c387	0.02634279722082369
136	0xbfc8f3efa6e93f26	-0.19494434022862456
137	0xbfb96d9bac8187fe	-0.09932873689243135
138	0x3fb4be8cae5cc617	0.08103255516905282
139	0xbfc707d06d674335	-0.17992596952401532
140	0x3fa2b3270359359f	0.0365230743014806
141	0xbf61661d27248493	-0.0021238870041462936
142	0xbf630a2072d6c37d	-0.002324164749289924
143	0xbfcd29caee874f27	-0.22783791205312662
144	0x3fa58dcc367499f7	0.04209745564212491
145	0xbfc89ba36f2312a5	-0.19224970747577177
146	0xbfc1d348b8eaa145	-0.13926037816168893
147	0x3fd04b8784040b5d	0.25460994617622196
148	0x3fb55d0a5d841503	0.08345093520263806
149	0xbfbae016a64d34af	-0.10498181877229017
150	0xbfb49c86a43217ff	-0.08051339634593545
151	0xbfa1a344c2366c19	-0.034448765475836925
152	0xbf71446cc7e47ec3	-0.004215645718687436
153	0xbfc10c9aaa98a8e0	-0.13319714860819598
154	0xbf90c9c5193acd8a	-0.016394691147707564
155	0x3fc8057193ebe190	0.1876661274216187
156	0xbfc2a58138509156	-0.14567580461256097
157	0xbfcdba2cd50e2d81	-0.2322441139516336
158	0xbfac82af0a02dfaa	-0.05568453786094037
159	0x3fd70523857b6b97	0.3596886447464213
160	0xbf72834151ee0ebd	-0.0045197059215557585
161	0xbfd5aa3d6aeea1eb	-0.33851561968415805
162	0x3fcb1b4ba181cfe6	0.2117704905136854
